Code/ml_models/name_matcher/cross_encoder_1.pth (torch, 894333 bytes, 21 tensors)

name_embedding.weight f4 [28, 128]
0	0x3e94d74f	0.29070517
1	0xbf6b3fde	-0.9189433
2	0x3ea9bc38	0.33151412
3	0xbf426ded	-0.75948983
4	0x3f67d1f5	0.90554744
5	0x3e87ddd1	0.2653642
6	0xbf2f03b6	-0.6836504
7	0x3ed22c83	0.41049585
8	0x3eb804f9	0.35941294
9	0xbf2f1dbb	-0.6840474
10	0xbf80093e	-1.000282
11	0x3f599709	0.84996086
12	0x3f94441a	1.1583283
13	0xbf3380e5	-0.7011855
14	0x3f6156b4	0.88022923
15	0x3ec6f93a	0.3886202
16	0x3e4fd6b1	0.20296742
17	0x3fa43a27	1.2830247
18	0x3f8293e8	1.0201387
19	0xbc5d01ca	-0.013489196
20	0x3f887fbd	1.0663983
21	0x3f05a407	0.5220341
22	0x3c4d3915	0.012525816
23	0x3fbc753c	1.4723277
24	0x3e9b6aa3	0.30354795
25	0x3faf00c4	1.3672109
26	0x3fb5e6ef	1.42111
27	0x3ea2290a	0.31671935
28	0xbbe31fd4	-0.0069312844
29	0xbcd3340b	-0.025781652
30	0xbc948421	-0.01812941
31	0xbfb67b13	-1.4256309
32	0xbc83d680	-0.016093493
33	0x3e42acd6	0.19011244
34	0xbfcdc01b	-1.6074251
35	0xbfdcf9f3	-1.7263778
36	0xbf819d31	-1.0126096
37	0x3f4e25c4	0.80526376
38	0xbf9a1b4f	-1.2039584
39	0x3f8a8410	1.0821552
40	0xbee7d18d	-0.45277062
41	0xbf009ecf	-0.5024232
42	0xbf42696f	-0.7594213
43	0xbf52d959	-0.82362896
44	0x3cb0fc48	0.021604672
45	0xbf6a2642	-0.91464627
46	0xbec5bc5f	-0.38620278
47	0xbe9bd8c1	-0.30438808
48	0xbfa6297a	-1.2981408
49	0xbfcc354b	-1.5953764
50	0x400228e5	2.033746
51	0xc02e1750	-2.720173
52	0x3edcb1d7	0.4310443
53	0xbe8834f3	-0.26602897
54	0xbee4e56c	-0.44706285
55	0xbf3ef212	-0.7458812
56	0x3e22f941	0.15915395
57	0xbf1d3319	-0.61406094
58	0xbf20fc1d	-0.62884694
59	0x3c66e731	0.014093206
60	0xbfcd0ee6	-1.6020172
61	0x3e0b9894	0.13632423
62	0xbfa04523	-1.2521099
63	0x3fc37024	1.5268598
64	0xbec5c525	-0.38626972
65	0xbf5da4da	-0.8657967
66	0x3e76e00e	0.24108908
67	0x3e97f9e0	0.29682827
68	0xbcf9422f	-0.030427067
69	0xc00df86c	-2.2182875
70	0x40356a3c	2.834609
71	0x3f689e5e	0.9086665
72	0xbf7ac5d8	-0.97958136
73	0xbee6879e	-0.45025343
74	0x3f40cc70	0.75311947
75	0xbdfdc334	-0.12390748
76	0xc0056a0f	-2.0845983
77	0xbe67dc9c	-0.2264275
78	0xbd9f086c	-0.07765278
79	0x3f02c3ce	0.51080024
80	0x3f952259	1.1651107
81	0xbef5c3d8	-0.4800098
82	0xc00d2d38	-2.205885
83	0x3f103c1e	0.5634173
84	0xbe8cc484	-0.2749368
85	0x3f01301e	0.50464046
86	0x3f81a9b2	1.0129912
87	0xbbab1239	-0.005220678
88	0xbc9fd5fa	-0.019511212
89	0x3f17fc29	0.5936914
90	0x3fa36e83	1.27681
91	0x3f429dbd	0.7602194
92	0x3eae39bd	0.34028426
93	0xbe6b20fc	-0.22961801
94	0x3f9dea97	1.2337216
95	0xbf0b365f	-0.5437984
96	0x3f985e74	1.1903825
97	0xbd6fc6d4	-0.058539227
98	0xbe26e018	-0.16296422
99	0x3eaf9ede	0.34300894
100	0x3df6b960	0.12047076
101	0xbf3cf562	-0.73811924
102	0xbfc28cf9	-1.5199271
103	0x3ed58a1a	0.41706926
104	0xbfb41bac	-1.4070945
105	0x3e13b0c9	0.14422907
106	0x3f2579a0	0.6463871
107	0xbf26e58d	-0.65194017
108	0x3dc9f145	0.09860472
109	0xbe68dac3	-0.22739701
110	0xbf3cd076	-0.73755586
111	0xbf50c218	-0.81546164
112	0xbfd9963d	-1.6998974
113	0xbf1ef77d	-0.6209639
114	0xbfe9938e	-1.8248155
115	0xbefb8161	-0.49122146
116	0xbea44d50	-0.32090235
117	0x3e3dea26	0.18546352
118	0xbf95c062	-1.1699336
119	0x3f52f609	0.8240667
120	0xbf950518	-1.164218
121	0xbf4dff15	-0.8046735
122	0x3f33430f	0.700242
123	0xbeb6a9d1	-0.35676435
124	0xbe2475f3	-0.16060619
125	0x3fc8da2e	1.5691583
126	0xbfd23050	-1.6420994
127	0x3efc6a36	0.49299783
128	0x3eec5c1a	0.46164018
129	0xbfa36ad0	-1.2766972
130	0xbf88ab26	-1.067723
131	0xbf7ff762	-0.9998685
132	0x3e21e611	0.1581042
133	0xbee4205e	-0.44555944
134	0x3fbe56f4	1.4870286
135	0xbfb5daa2	-1.4207346
136	0xbf9f0782	-1.2424166
137	0x3f139b24	0.576586
138	0x3ea8daef	0.32979533
139	0x3f99b7f7	1.2009267
140	0x3f08b9cc	0.53408504
141	0xbf8ebfc2	-1.115227
142	0x3ebab3c4	0.36465275
143	0x3faa1147	1.3286523
144	0xbfa41173	-1.2817825
145	0x3f2f0d5a	0.6837975
146	0xbfbfa47e	-1.4972074
147	0x3f512c53	0.8170826
148	0x3f4d782c	0.8026149
149	0xbfd8d56f	-1.6940135
150	0xbf0f1e7a	-0.5590588
151	0x3e5d5abe	0.21616647
152	0x3ccf3743	0.025294906
153	0x40212a4a	2.5182061
154	0xbf195ebe	-0.5991019
155	0x3f072120	0.5278492
156	0x3f0e101e	0.5549334
157	0x3e15e8f5	0.14639647
158	0xbf96530c	-1.1744094
159	0xbf672164	-0.90285325
160	0x3ed2ce21	0.4117289
161	0x3f600fbd	0.87524015
162	0xbf500874	-0.812629
163	0xbf6fcb51	-0.9366961
164	0x3e0fe4b8	0.14052093
165	0x3da7e86f	0.0819863
166	0x3fea04dd	1.8282734
167	0x3e8e453f	0.27787206
168	0x3ffa8093	1.9570488
169	0xc00177b1	-2.0229304
170	0xbf4ac763	-0.7921049
171	0x3fc56419	1.5421172
172	0x3f9ab5f4	1.2086778
173	0x3f9d4ef8	1.2289724
174	0x3ec54f96	0.38537282
175	0xbe048ed9	-0.12945117
176	0xbf18ea7a	-0.5973278
177	0x3f3f430d	0.74711686
178	0xc000f808	-2.0151386
179	0x4015b559	2.3391936
180	0xbee09489	-0.43863323
181	0x3f0adcdf	0.5424327
182	0xbe8cc7db	-0.27496228
183	0x3d80ba41	0.06285525
184	0xbfb330be	-1.399925
185	0x3e8d98d1	0.27655652
186	0x3f9955e5	1.1979338
187	0x3fb3228f	1.3994921
188	0xbe8964c0	-0.2683468
189	0x3f0b774a	0.54478896
190	0x3edff1f3	0.4373928
191	0x3fad9b26	1.3562973
192	0x3f16a68b	0.58847874
193	0xbf594be8	-0.8488145
194	0xbf924486	-1.1427162
195	0x3fda3176	1.7046344
196	0xbd947edd	-0.0725076
197	0x3f450c27	0.7697167
198	0x3f9e9be2	1.2391322
199	0x3fa5f2dc	1.296474
200	0xbedb6397	-0.4284942
201	0x3fdb8054	1.7148538
202	0x401eef21	2.4833453
203	0x3d17da44	0.03707339
204	0x3eb1e519	0.347451
205	0xbfbe4d4e	-1.4867342
206	0x3fc2a979	1.5207969
207	0x3f54e0a4	0.83155274
208	0xbf9abc0b	-1.2088636
209	0x3eb5ba3e	0.35493654
210	0x3fce6cb6	1.6126926
211	0x3f90495a	1.1272385
212	0x3f7bbac5	0.9833186
213	0x3fa0bd36	1.2557743
214	0xbf32a8ea	-0.6978899
215	0x3f2f6056	0.6850637
216	0x3e4af6ca	0.19820705
217	0xbfcda402	-1.6065676
218	0x3fda869a	1.7072327
219	0xbf0a0c51	-0.53925043
220	0x3f1abc5a	0.6044365
221	0x3f21c662	0.63193333
222	0xbf3110e7	-0.69166416
223	0x3eb41415	0.3517157
224	0x3f4bff5e	0.79686534
225	0x4048bc76	3.1365027
226	0x3ee7e1dc	0.45289505
227	0x3c8fdcd9	0.017561363
228	0xbfa1a024	-1.2626996
229	0xbf1838e5	-0.59461814
230	0x3f8398b0	1.0280972
231	0x3f3bdcf1	0.73384005
232	0xbf86ea91	-1.0540334
233	0xbdbaed33	-0.091272734
234	0x3e992218	0.29908824
235	0xbf2ead7e	-0.6823348
236	0x3e4e8136	0.20166478
237	0x3d99facd	0.075185396
238	0x3f78e6d6	0.9722723
239	0xbfdbda51	-1.7176
240	0xbf257c23	-0.6464254
241	0x3f781571	0.96907717
242	0x3e85aba7	0.26107523
243	0xbf31a6df	-0.6939525
244	0x3dea371f	0.11436295
245	0x3fc335b5	1.5250765
246	0x3ec4b040	0.38415718
247	0xbf87bfbd	-1.0605389
248	0x3e2355af	0.15950654
249	0x3ef9f38c	0.48818624
250	0xbd8edff3	-0.06976309
251	0xbf6a469a	-0.9151398
252	0xbfa643ee	-1.298948
253	0x3f045bba	0.51702464
254	0x4012940d	2.2902863
255	0xbf6b9a74	-0.9203255

metaphone_embedding.weight f4 [28, 128]
0	0xbe0ec783	-0.13943295
1	0xbf94e616	-1.1632717
2	0xbfca4246	-1.5801475
3	0x3e382127	0.17981397
4	0xbf810fdc	-1.0082965
5	0xbe793784	-0.24337584
6	0x400c0563	2.1878288
7	0xbed6beb9	-0.41942385
8	0xbe521083	-0.20514111
9	0x3f5a0ffa	0.8518063
10	0x3f2bc308	0.6709447
11	0x3fc56bab	1.5423483
12	0x3f1a8dc7	0.60372585
13	0x3f97fa06	1.1873176
14	0xbfdb8832	-1.7150939
15	0xbf86f28c	-1.054277
16	0x3f602f86	0.87572515
17	0xbf595bf0	-0.8490591
18	0x3e7b968d	0.2456915
19	0x3f6dfb0b	0.92961186
20	0x3fdea88f	1.739519
21	0xbf77e415	-0.968324
22	0x3f5e1753	0.8675434
23	0x3f00fb41	0.50383383
24	0x3f96c948	1.1780176
25	0xbe345f4e	-0.17614481
26	0x3f42c3e6	0.7608017
27	0x3eca862d	0.39555493
28	0xbd008f43	-0.031386625
29	0xbf117b07	-0.5682835
30	0x403c2de1	2.9403002
31	0xbe85795c	-0.26069152
32	0x3f05c58d	0.52254564
33	0x3e370e76	0.1787661
34	0xbe8672ae	-0.2625937
35	0x3fbf3c09	1.4940196
36	0x3f87d74f	1.0612582
37	0xbfc23f98	-1.5175657
38	0x3efe2cd4	0.49643576
39	0x3f10df7d	0.56591016
40	0x3f7cf782	0.98815167
41	0xbeccecfe	-0.4002456
42	0xbf159b42	-0.5844003
43	0xbd6ad2ee	-0.057330064
44	0x3e62b52f	0.22139429
45	0xbf9e58a0	-1.2370796
46	0x3f48717b	0.7829816
47	0xbf41e0f4	-0.75733876
48	0x3f2e90b8	0.68189573
49	0x3f7fd831	0.99939257
50	0x3fb35c4e	1.4012544
51	0x3f0e4ad3	0.5558292
52	0xbe87ee81	-0.26549152
53	0x3f61da64	0.8822386
54	0x3d89f9b1	0.06737078
55	0xbc0d540e	-0.008625997
56	0xbe8aee6a	-0.2713502
57	0xbfdadbdc	-1.7098346
58	0x3fc4d9d9	1.5378982
59	0x3f54df0f	0.8315286
60	0x3f4bdc21	0.79632765
61	0xbf079a0e	-0.52969444
62	0x3d3e3cf4	0.04644485
63	0x4023b7e9	2.5581
64	0xbf0fb98a	-0.56142485
65	0x3ebb2093	0.3654829
66	0xbf45864a	-0.77158034
67	0xbfff8b4f	-1.9964389
68	0xbf36e946	-0.71449697
69	0xbfe94366	-1.8223693
70	0x3e014814	0.12625152
71	0x3ed6dc6c	0.41965044
72	0x3ebb6f91	0.36608556
73	0xbe383fd1	-0.17993094
74	0xbfd9026c	-1.6953864
75	0x3edd2b3b	0.43197045
76	0xbe67104a	-0.22564808
77	0x3dccbe4f	0.09997236
78	0xbe294a7b	-0.16532318
79	0x3e605df7	0.21910845
80	0x3f8dc5f6	1.1076038
81	0xbefe5758	-0.49676013
82	0x3ecc71fc	0.39930713
83	0x3cb3d5ce	0.021952536
84	0xbe455c0a	-0.19273391
85	0xbeee4cdf	-0.46543023
86	0xbd9b3d96	-0.07580106
87	0xbf06a2cb	-0.5259215
88	0x3f10a034	0.5649445
89	0x3f26fce9	0.6522966
90	0xbd8d056e	-0.06885801
91	0x3e0f9128	0.14020216
92	0xbf9d9ec2	-1.2314074
93	0x3fc1cb9f	1.5140265
94	0xbf8bf6f4	-1.0934739
95	0xbf34f3b8	-0.70684385
96	0xbf01cc09	-0.5070196
97	0x3f8f18a1	1.1179391
98	0x3fae3a14	1.3611474
99	0xbf652be4	-0.89520097
100	0xbef09fce	-0.4699692
101	0xbf81fa85	-1.0154577
102	0xbee09a23	-0.43867597
103	0x3f4785c7	0.77938503
104	0xbd35acca	-0.044354238
105	0xbf86e282	-1.0537875
106	0xbe9fdea4	-0.3122455
107	0x3e81fae8	0.2538674
108	0x3ea99f0e	0.33129162
109	0x3e56e1e0	0.20984602
110	0xbeb7a762	-0.3586989
111	0xc02294a9	-2.5403235
112	0x3f2d46e0	0.6768627
113	0xbf5bad77	-0.8581156
114	0x3e76e3d8	0.24110353
115	0x3f321cff	0.69575495
116	0xbfb6f2d9	-1.4292861
117	0xbf641ac4	-0.8910334
118	0xbf8835e0	-1.0641441
119	0x3deeeb1d	0.11665938
120	0x3f2a58c2	0.66541684
121	0xbe9156c2	-0.28386503
122	0xbed0989f	-0.4074144
123	0x3e8e8aeb	0.2784036
124	0x3e0a21f3	0.13489513
125	0x3f223c31	0.63373095
126	0x3ee0f84d	0.43939438
127	0x3f1fc7fc	0.62414527
128	0x3eb1ad46	0.3470251
129	0x3f2af5d8	0.6678138
130	0xbfc56fb2	-1.5424712
131	0x3e115770	0.14193511
132	0x3fb89edd	1.4423481
133	0x3fd4fc1f	1.6639441
134	0x3f3511e2	0.7073041
135	0x3f2d1e71	0.67624575
136	0x3cf795c6	0.030222785
137	0xbe9d5d9b	-0.30735478
138	0xbfa13912	-1.2595541
139	0x3f1e0c80	0.61737823
140	0x3fb9b026	1.4506881
141	0x3fb718d3	1.4304451
142	0x40017b20	2.02314
143	0xbf20118b	-0.6252677
144	0xbf04dfc7	-0.5190396
145	0x3f989053	1.1919044
146	0x3f83a6e3	1.0285305
147	0x3ee5cfa4	0.4488498
148	0xbf187258	-0.59549475
149	0xbf4cd081	-0.8000565
150	0xbf8a9550	-1.0826817
151	0xbfea6414	-1.8311791
152	0x3f223503	0.6336214
153	0xbeeec4a4	-0.466344
154	0x3ffa357e	1.9547575
155	0x3f89341a	1.0719025
156	0xbf345b9b	-0.7045228
157	0x3fe3a2c3	1.7784046
158	0x3d1cba8b	0.03826384
159	0x3f1b7b4d	0.6073502
160	0x3fbbcc6a	1.4671757
161	0x3ed1edc6	0.4100172
162	0x3ecf941a	0.4054268
163	0xbec416c8	-0.3829863
164	0xbf8b4190	-1.0879383
165	0xbfb2852d	-1.3946892
166	0xbfb9dd20	-1.4520607
167	0xbf922d33	-1.1420044
168	0xc020f958	-2.5152187
169	0xbea3cb77	-0.3199117
170	0xbf30dd20	-0.6908741
171	0x3fd83da2	1.6893809
172	0xc02bcb5b	-2.6842868
173	0xbfd8a2b1	-1.692465
174	0xbfab23c4	-1.337029
175	0x3d5e1c8e	0.05422645
176	0x3faa942f	1.3326472
177	0x3d2af797	0.041740026
178	0xbfdae192	-1.7100089
179	0xbf0aedc8	-0.54269075
180	0x3e8d5a2e	0.27607864
181	0xbf2cd834	-0.675174
182	0xbf77cd3f	-0.96797556
183	0x3dca0d5b	0.098658286
184	0xbea123f2	-0.31472737
185	0xbee0e62a	-0.439256
186	0xbf7844a9	-0.9697977
187	0xbe9fadaa	-0.31187183
188	0x3f2b787f	0.6698074
189	0xbf0cd079	-0.55005604
190	0xbf02cf8e	-0.51097953
191	0x3ecfd77e	0.40594095
192	0x3ed9db41	0.4255009
193	0xbf223d9d	-0.63375264
194	0xbf812b7b	-1.0091394
195	0x3fd87001	1.6909181
196	0xc01631da	-2.3467927
197	0xbf952fda	-1.1655228
198	0x3f3fbdbd	0.7489889
199	0x3dcb22bf	0.09918737
200	0x3fa7c034	1.3105531
201	0xbfcd4cc3	-1.6039051
202	0xbe3b78c8	-0.18307793
203	0x400dd59a	2.2161622
204	0x3fce88c0	1.6135483
205	0xbdc604d9	-0.09668893
206	0x3eeb1305	0.45912948
207	0xbf8d5868	-1.1042604
208	0xbf970940	-1.1799698
209	0xbdaf32ae	-0.08554588
210	0x3ffcb008	1.974122
211	0xbfb92349	-1.4463893
212	0xc00364e8	-2.0530338
213	0xbfd3c983	-1.6545871
214	0xbf70017f	-0.9375228
215	0x3ef8f4c5	0.48624244
216	0x3f91add7	1.1381177
217	0xbd61256a	-0.05496732
218	0xbfd6589f	-1.6745795
219	0xbfab6979	-1.3391563
220	0xbf399482	-0.7249223
221	0x3f752583	0.95760363
222	0x3f2bcbed	0.6710804
223	0xbf501198	-0.81276846
224	0xbc9638d0	-0.018337637
225	0xbf1a23a8	-0.6021066
226	0x3f968aec	1.1761146
227	0x3eb8a274	0.36061442
228	0x3f1ed07e	0.62036884
229	0x3f8422c3	1.0323108
230	0x3fb98b84	1.4495702
231	0x3fa71fa4	1.3056531
232	0xbfa78180	-1.3086395
233	0xbf1773a5	-0.59160835
234	0xbdb13ebc	-0.08654544
235	0xbe864795	-0.26226488
236	0xbf9a13ae	-1.2037256
237	0x3f3ee8f5	0.74574214
238	0x3ef14d25	0.4712917
239	0xbe1cc6ec	-0.15310258
240	0x3f18950b	0.5960242
241	0xbfa4f1ab	-1.2886251
242	0x3e5f77f6	0.21823105
243	0xbe64ab89	-0.2233106
244	0xbed6f0b7	-0.41980526
245	0xbf0ccd83	-0.55001086
246	0xbf3ecfb8	-0.74535704
247	0x3dd4c27f	0.1038866
248	0x3f9a9739	1.20774
249	0xbf44763f	-0.7674293
250	0x3f7b53ee	0.9817494
251	0xc00470da	-2.069388
252	0x3f33461d	0.7002886
253	0x3f7f642b	0.9976222
254	0xbefd4180	-0.49464035
255	0x3eb5cf18	0.35509562

name_lstm.weight_ih_l0 f4 [256, 128]
0	0x3d35e94a	0.044411935
1	0xbc5cd009	-0.013477334
2	0x3dbdc01e	0.09265159
3	0xbd3e9f72	-0.046538778
4	0xbd049e86	-0.032377742
5	0x3c695381	0.0142411
6	0x3d369f81	0.04458571
7	0xbdf6ece7	-0.12056904
8	0xbe1c9e20	-0.15294695
9	0xbd88f250	-0.066868424
10	0x3e1362bd	0.14393134
11	0x3da8225c	0.082096785
12	0x3c814d2c	0.015783869
13	0xbc59758e	-0.013272656
14	0xbd2f12af	-0.042742427
15	0xbda7d504	-0.081949264
16	0x3dade0a1	0.0849011
17	0x3d645be7	0.055751707
18	0xbe05927b	-0.13044159
19	0xbe011aac	-0.12607831
20	0xbe0e7a8e	-0.13913938
21	0xbc9eaa86	-0.019368421
22	0x3e08f6af	0.13375352
23	0xbd8d7ec1	-0.06908942
24	0x3e26567a	0.16243926
25	0x3d481db9	0.04885647
26	0xbdbe23fd	-0.09284208
27	0xbc28edf2	-0.010310637
28	0x3b4f6247	0.0031644271
29	0xbd5399f6	-0.0516605
30	0xbdfd5062	-0.123688474
31	0x3d0ebf8b	0.03485064
32	0x3e326e8d	0.17424984
33	0x3d1c9d0c	0.03823571
34	0x3ceac649	0.028659003
35	0xbddd848a	-0.108162954
36	0xbd9df662	-0.077130094
37	0xbd2bda61	-0.04195631
38	0xbdd60d0a	-0.10451706
39	0x3d3e5147	0.04646423
40	0xbce576d8	-0.02801077
41	0xbca4ee4f	-0.020133166
42	0xbe1df7f3	-0.15426616
43	0xbd9e6054	-0.07733217
44	0xbd40e56b	-0.04709379
45	0x3dc07ec3	0.09399178
46	0x3da8e6ea	0.08247168
47	0xbd05ae2e	-0.032636814
48	0x3cef4449	0.029207366
49	0xbd31dc35	-0.043422896
50	0xbc843b40	-0.016141534
51	0x3d573248	0.052538186
52	0x3cff5cf4	0.031172253
53	0xbdce63dc	-0.100776404
54	0xbe35e08d	-0.1776144
55	0x3dd1bb3c	0.1024079
56	0xbd6e91a9	-0.05824438
57	0xbd3f35d9	-0.046682213
58	0x3c6e14a9	0.014531293
59	0xbe1d26bc	-0.15346807
60	0x3de56b9b	0.11202165
61	0xbd566d6d	-0.05235045
62	0x397d53a2	0.00024159116
63	0xbcc0dba1	-0.023542227
64	0x3d9dbc4a	0.07701929
65	0xbbc0f527	-0.0058885994
66	0xbb7bf063	-0.0038442842
67	0x3dae2902	0.08503915
68	0xbd97a474	-0.07404414
69	0x3d9c3737	0.07627719
70	0xbd95ebe8	-0.07320386
71	0x3b4c3cce	0.0031164172
72	0xbb89554d	-0.004191077
73	0x3e067fa5	0.1313463
74	0x3c31ac42	0.010844292
75	0xbd2c67ae	-0.042091064
76	0xbda7473f	-0.08167886
77	0x3d2a8922	0.041634686
78	0x3deadef3	0.114683054
79	0x3d735685	0.059408683
80	0xbdfe8f14	-0.12429634
81	0xbe001185	-0.12506683
82	0xbda8f001	-0.08248902
83	0x3dc38e15	0.09548584
84	0xbc2896e8	-0.010289885
85	0xbd1eda85	-0.038782615
86	0xbdbb988d	-0.09159956
87	0xbcddc5ca	-0.027071852
88	0x3bdcb13b	0.0067349947
89	0xbb656108	-0.0035000462
90	0x3c728da3	0.014804277
91	0x3db16508	0.08661848
92	0xbc1a5399	-0.009419345
93	0xbd8f3a5a	-0.069935516
94	0xbc68021c	-0.014160659
95	0x3d357edf	0.044310447
96	0xbd3ae779	-0.045630906
97	0x3dc118de	0.09428571
98	0xbd9c36f0	-0.07627666
99	0xb8643acb	-5.441419e-05
100	0xbd8de538	-0.06928486
101	0xbe00efab	-0.12591426
102	0xbcc74361	-0.024324121
103	0x3d481b6b	0.048854273
104	0x3db970bc	0.090547055
105	0x3d9a5de8	0.075374424
106	0x3e01b346	0.12666044
107	0x3cea577f	0.028606175
108	0x3b53f3b4	0.0032341303
109	0xbce195d5	-0.027537266
110	0x3df6d57b	0.12052437
111	0xbdf9291f	-0.12166046
112	0x3e01f3a8	0.12690604
113	0x3da5ac68	0.080895245
114	0xba99dec2	-0.0011739361
115	0xbd7c6563	-0.061620127
116	0x3d160b18	0.036631674
117	0x3d20632a	0.03915707
118	0x3d91f7d7	0.0712735
119	0x3db99772	0.09062089
120	0x3dc89f3a	0.09795995
121	0x3d8f7af8	0.07005876
122	0x3d8c38da	0.06846781
123	0xb8500b42	-4.960155e-05
124	0xbc530d77	-0.012881628
125	0xbda89afd	-0.08232687
126	0x3deeb6a2	0.11655928
127	0xbd1caed6	-0.038252674
128	0xbb0c77c3	-0.0021433688
129	0x3d4c40a8	0.04986635
130	0x3bbbd75a	0.005732459
131	0xbde558f5	-0.11198608
132	0x3d41c985	0.047311325
133	0x3ccd31ee	0.025048222
134	0xbdb0bb2b	-0.086294495
135	0xbe23926b	-0.15973823
136	0xbda97e5b	-0.082760535
137	0xbddcf868	-0.10789567
138	0x3c48a6d0	0.012246802
139	0xbd5653a7	-0.05232587
140	0xbdeedae8	-0.11662847
141	0xbcb6980f	-0.022289304
142	0x3dbf1db6	0.09331839
143	0xbda4ebf8	-0.0805282
144	0x3d193334	0.037402347
145	0x3d36d34a	0.044635095
146	0x3d8e67a1	0.069533594
147	0x3d9102bf	0.07080602
148	0x3d024127	0.031800415
149	0xbd79299c	-0.060830697
150	0xbc27b612	-0.01023628
151	0x3d8cc8a7	0.06874209
152	0xbdf900f8	-0.12158388
153	0xbde29287	-0.11063104
154	0xbd9c0637	-0.07618373
155	0xbd858bd7	-0.06520813
156	0x3d5f61b9	0.054536555
157	0xbdf3675e	-0.1188495
158	0x3d8221ed	0.06354127
159	0xbd9ce0e7	-0.07660084
160	0x3cb8b41a	0.022546817
161	0xbdb78924	-0.089617044
162	0x3e0c0767	0.13674699
163	0x3e011389	0.12605108
164	0xbda26ec5	-0.07931284
165	0xbd9a3eba	-0.075314954
166	0xbd9281b2	-0.07153644
167	0x3da208a4	0.07911804
168	0xbdb753ca	-0.08951528
169	0xbc47925d	-0.012180892
170	0xbdd26ae1	-0.10274292
171	0x3de738a6	0.11290102
172	0xbd4a6c0a	-0.04941944
173	0xbd82a9bd	-0.06380031
174	0x3dac5c29	0.08416016
175	0xbc8c20f8	-0.017105564
176	0x3de8b4f4	0.11362639
177	0x3e004bd0	0.1252892
178	0x3d624b11	0.05524737
179	0x3d53bff5	0.051696736
180	0x3d8a28ad	0.067460395
181	0x3dda337f	0.10654353
182	0xbcdb63b2	-0.026780937
183	0x3d01af04	0.03166105
184	0xb9a191e2	-0.00030817004
185	0x3dd8645e	0.105660185
186	0xbe104091	-0.1408713
187	0x3cd15f97	0.025558276
188	0x39a32f6c	0.00031125115
189	0xbd11ae42	-0.035566576
190	0xbdb735d6	-0.08945815
191	0xbcd0c16d	-0.025482858
192	0x3d85171e	0.0649855
193	0x3dc2eede	0.095182166
194	0x3e16167c	0.14657015
195	0x3c21f5f0	0.009885296
196	0x3d717d39	0.058957312
197	0x3d0a4e67	0.033766177
198	0x3ca6c820	0.020359099
199	0x3de08351	0.109625466
200	0xbdbf4436	-0.09339182
201	0xbe02abd1	-0.12760855
202	0x3dcf324f	0.101170175
203	0xbdb171da	-0.086642936
204	0xbdada4c8	-0.08478695
205	0x3c725b5e	0.014792291
206	0xbd62505d	-0.05525242
207	0xbdde66f7	-0.10859483
208	0x3d1d8ab3	0.038462352
209	0xbda18955	-0.07887522
210	0xbd733f3a	-0.05938647
211	0xbe115e63	-0.14196162
212	0xbdc5e88a	-0.09663494
213	0xbce512a5	-0.027962992
214	0xbdeec193	-0.11658015
215	0xbd926866	-0.07148819
216	0xbd89c98c	-0.06727895
217	0x3df0d691	0.11759675
218	0x3d46a3ea	0.048496164
219	0x3d8c0a43	0.06837895
220	0x3d559790	0.052146494
221	0x3d93410b	0.0719014
222	0xbdf8efd6	-0.1215512
223	0x3d30250a	0.043004073
224	0xbd893e3d	-0.06701324
225	0xbdd98849	-0.106216975
226	0xbdb61d92	-0.08892359
227	0xbdc0c668	-0.09412843
228	0x3c76681d	0.015039471
229	0x3de08087	0.10962015
230	0xbc749448	-0.014927931
231	0xbdb4eb83	-0.08833983
232	0x3cc6cca0	0.024267495
233	0x3dd84b48	0.10561234
234	0x3c8c11aa	0.017098267
235	0x3dbbc227	0.09167891
236	0x3bdf56a6	0.006815749
237	0x3d3d2f5a	0.046187736
238	0x3c314ed9	0.010822021
239	0x3d5757a5	0.05257382
240	0x3caccd46	0.021093976
241	0xbd4d845f	-0.050175067
242	0x3d2181f1	0.039430562
243	0x3d08629f	0.033297177
244	0xbda60db0	-0.081080794
245	0x3cf0f77b	0.029414883
246	0xbde2dbbc	-0.11077067
247	0x3dd7954c	0.10526523
248	0x3dcc36c5	0.09971384
249	0x3db8b9f8	0.09019846
250	0xbda18aad	-0.078877784
251	0xbdcb9fbc	-0.09942576
252	0x3dcd385d	0.10020516
253	0xbcfa3db8	-0.030547008
254	0xbdb54084	-0.08850196
255	0xbda2e9a4	-0.0795472

name_lstm.weight_hh_l0 f4 [256, 64]
0	0xbe83f579	-0.25773218
1	0x3d9e4d46	0.077295825
2	0xbcd21f40	-0.025649667
3	0x3d46a6f3	0.04849906
4	0xbdff5cc7	-0.12468868
5	0x3e25478e	0.16140577
6	0x3e49dc29	0.1971289
7	0x3e031c99	0.12803878
8	0xbd870308	-0.06592375
9	0xbe0155dd	-0.1263041
10	0xbe3bea09	-0.18350996
11	0xbcf280b4	-0.029602386
12	0xbe95ee11	-0.29283193
13	0x3bb66e95	0.0055673816
14	0x3e03f39b	0.12885897
15	0xbe17f5a1	-0.14839794
16	0x3d00e3d4	0.031467274
17	0xbc6bde4f	-0.014396264
18	0x3df7cf12	0.121000424
19	0xbd1757dd	-0.036949027
20	0x3e3f63d8	0.18690431
21	0x3c76898b	0.015047441
22	0xbcf10bb6	-0.02942453
23	0xbe5bbb7d	-0.2145824
24	0xbde18a6c	-0.1101273
25	0xbde9b779	-0.11411948
26	0xbcfad341	-0.030618312
27	0x3d5ba08a	0.0536199
28	0xbd81fb88	-0.06346804
29	0x3bcf6ff1	0.006330483
30	0x3de360d4	0.11102453
31	0xbad3a50d	-0.0016147211
32	0x3e02be30	0.12767863
33	0x3d55a78a	0.05216173
34	0xbe60e7c8	-0.21963418
35	0x3e0bff8a	0.13671699
36	0xbe0d2553	-0.1378377
37	0x3db0ef9b	0.08639451
38	0x3d79749c	0.060902223
39	0xbe2d385f	-0.16916035
40	0x3ca6729f	0.020318327
41	0x3e49b2dc	0.19697136
42	0xbd4fe6a7	-0.050757077
43	0x3d19ffad	0.037597347
44	0x3e2515bb	0.16121571
45	0x3e079b71	0.1324289
46	0x3d7dd4ad	0.0619704
47	0x3daf1ae9	0.085500546
48	0x3dffedc6	0.124965236
49	0xbdb30260	-0.08740687
50	0x3d0f3014	0.03495796
51	0xbd214328	-0.039370686
52	0xbdd9fb84	-0.10643676
53	0x3e5f42f5	0.21802886
54	0xbcfe141b	-0.031015446
55	0xbe545932	-0.2073715
56	0xbe0012b8	-0.1250714
57	0xbe558f7c	-0.20855516
58	0x3d502753	0.050818752
59	0xbd18187e	-0.037132733
60	0xbdfabce5	-0.1224306
61	0xbd7549af	-0.059884723
62	0xbca3eb2a	-0.020009596
63	0xbcd8bfa1	-0.026458563
64	0xbe03fda1	-0.1288972
65	0x3e0eadfe	0.1393356
66	0xbdff5f98	-0.12469405
67	0x3dfa808c	0.122315496
68	0x3c6faa0d	0.014627946
69	0xbd13f534	-0.036122516
70	0xbe8cc489	-0.27493694
71	0x3e0a1ed5	0.13488324
72	0xbe205d61	-0.15660621
73	0xbd5cc494	-0.05389841
74	0xbc51b5aa	-0.01279966
75	0x3e18b382	0.14912227
76	0x3e13f45e	0.14448687
77	0xbcd3a6dd	-0.025836403
78	0x3db2ece5	0.0873659
79	0xbdb32745	-0.087477244
80	0x3d0433ae	0.032275848
81	0x3dc93c2a	0.098259285
82	0xbdb28b3e	-0.087179646
83	0x3d451e84	0.048124805
84	0x3b652047	0.0034961866
85	0xbe4ebe26	-0.20189723
86	0xbdd3817c	-0.103274316
87	0xbd4a3682	-0.04936839
88	0x3e44576e	0.19173977
89	0xbd5b3e85	-0.05352642
90	0xbd31a6bc	-0.0433719
91	0x3d72f833	0.059318732
92	0xbd2d4875	-0.04230543
93	0xbdb99689	-0.090619154
94	0x3da7d0f5	0.08194152
95	0xbde847f5	-0.1134185
96	0xbc9502b8	-0.018189773
97	0x3d7b90f9	0.061417554
98	0xbd7e40ef	-0.062073644
99	0xbe252272	-0.16126421
100	0xbd971d10	-0.0737859
101	0xbcbe7807	-0.023250593
102	0x3da559a6	0.0807374
103	0xbcfd0221	-0.030884804
104	0x3e02606e	0.12732098
105	0xbe5034d1	-0.20332648
106	0x3e1404a6	0.14454898
107	0xbe0d7fb1	-0.13818242
108	0x3d56adbb	0.052411776
109	0x3ddaeca6	0.10689668
110	0x3c8bb8de	0.017055925
111	0xbe53d5f3	-0.20687084
112	0xbdfb41ec	-0.12268433
113	0xbe1151bc	-0.14191335
114	0x3bb153f7	0.0054116207
115	0x3dbc5850	0.09196532
116	0xbddfc104	-0.10925487
117	0xbe38b4f7	-0.18037783
118	0x3d9dd2d9	0.077062316
119	0x3dcd4c90	0.10024369
120	0x3d1fb322	0.038989194
121	0xbc85dc4b	-0.016340395
122	0xbd128be2	-0.035777934
123	0x3d32f1c4	0.043687597
124	0x3d1e71a6	0.038682602
125	0xbdb7a75d	-0.08967469
126	0xbd33daaf	-0.043909725
127	0xbc4e5249	-0.0125928605
128	0xbd3d1543	-0.046162855
129	0x3e04c413	0.12965421
130	0x3d0f5477	0.03499266
131	0xbdf76caf	-0.120812766
132	0x3d5d042b	0.053959053
133	0x3d509603	0.050924312
134	0x3d0dfc5f	0.034664508
135	0xbd8391ab	-0.06424268
136	0xbb929f0c	-0.0044745263
137	0x3c82e80d	0.015979791
138	0x3e1d5ab3	0.1536663
139	0x3e403897	0.18771587
140	0xbc64c6cf	-0.013963415
141	0x3d9fddd4	0.07805982
142	0x3dc09712	0.094038144
143	0xbd9a4edf	-0.07534575
144	0x3d8a8770	0.06764114
145	0xbd535000	-0.051589966
146	0xbc82c908	-0.015965
147	0xbd88d063	-0.066803716
148	0xbdbe24bc	-0.0928435
149	0xbc440b07	-0.01196552
150	0xbdebf70c	-0.1152173
151	0x3d37a01c	0.044830427
152	0x3d1430e8	0.036179453
153	0x3ce8a0e4	0.028397031
154	0x3cfefb78	0.031125769
155	0xbdba155e	-0.09086107
156	0x3e11a130	0.14221644
157	0xbb7f29b6	-0.0038934774
158	0x3d50670a	0.050879516
159	0xbe0ffcc8	-0.14061272
160	0x3da4abb8	0.08040565
161	0xbcd9b303	-0.026574617
162	0xbd6568b8	-0.05600807
163	0xbda3d885	-0.08000282
164	0x3d872e5d	0.0660064
165	0x3dce7ef1	0.10082806
166	0x3dbb6b80	0.091513634
167	0x3c9f87e4	0.019473977
168	0x3d1ef7d9	0.038810585
169	0xbd88ac82	-0.06673528
170	0x3e0773f2	0.13227823
171	0xbdbd8acb	-0.09254988
172	0xbdbe2afb	-0.092855416
173	0xbce1ae87	-0.027549041
174	0xbdb0f231	-0.08639944
175	0xbdeec4fe	-0.11658667
176	0xbdcd273a	-0.100172475
177	0x3d1c6f3c	0.03819202
178	0x3dab6fd4	0.08370939
179	0x3bc9f41e	0.0061631342
180	0x3da31a07	0.07963949
181	0x3e1724d4	0.14760143
182	0x3e04b041	0.1295786
183	0xbe781727	-0.24227582
184	0xbe00106a	-0.12506261
185	0xbd0d4bb7	-0.034496035
186	0x3d9c2c7a	0.07625671
187	0x3c49444e	0.0122843515
188	0x3e038f1f	0.12847565
189	0xbd6135b3	-0.054982852
190	0xbdc9e7ab	-0.0985864
191	0x3d17f42e	0.037098102
192	0xbd773d6f	-0.060361322
193	0x3e088157	0.13330589
194	0x3c4a45b5	0.012345721
195	0xbe3065f1	-0.17226388
196	0xbd73c0f7	-0.059510197
197	0x3e1ee155	0.15515645
198	0xbc81fced	-0.015867675
199	0xbe188fe5	-0.14898641
200	0xbc9084bb	-0.017641416
201	0x3cc60674	0.024172999
202	0x3d07311f	0.03300583
203	0x3d8fedfa	0.07027812
204	0xbda5e2fb	-0.08099934
205	0x3ded5f1c	0.11590406
206	0x3cfc1eec	0.030776463
207	0xbe23844c	-0.15968436
208	0xbe4a7769	-0.19772114
209	0x3cdc88b2	0.02692065
210	0x3d9160f6	0.07098572
211	0x3da691b8	0.081332624
212	0xbdec5dc5	-0.115413226
213	0xbd1512b1	-0.03639478
214	0x3da38310	0.079839826
215	0xbe238198	-0.15967405
216	0x3e00c944	0.12576777
217	0xbcbbc3fb	-0.0229206
218	0x3dfddfd3	0.12396207
219	0xbb823819	-0.0039739725
220	0xbd761513	-0.06007869
221	0xbd96e871	-0.073685534
222	0x3d4dfd69	0.0502905
223	0x3d0e9072	0.034805723
224	0x3de13d8d	0.10998068
225	0x3d7caf96	0.06169089
226	0xbd70a2ef	-0.058749136
227	0xbdcfe42e	-0.10150944
228	0x39de95b1	0.00042454668
229	0xbdbdfbbc	-0.0927653
230	0x3ccf8ea2	0.025336567
231	0x3da21c98	0.0791561
232	0x3d1f77ef	0.038932737
233	0xbc899181	-0.016793014
234	0x3d2b45b4	0.04181452
235	0xbe70a034	-0.23498613
236	0xbd6552bc	-0.055987105
237	0x3dfc0e01	0.123073585
238	0x3b2087dc	0.002449504
239	0x3d99bf49	0.07507188
240	0x3df2019f	0.118167154
241	0x3dd1bfd2	0.10241665
242	0x3d420379	0.047366593
243	0x3d9256f6	0.07145493
244	0x3e39ce04	0.18144995
245	0xbd02f857	-0.031975117
246	0xbda83b98	-0.082144916
247	0xbd16d815	-0.036827166
248	0x3dd9be13	0.10631957
249	0x3dfae2c5	0.12250284
250	0x3def8d0f	0.11696827
251	0xb8e2ed9d	-0.00010820779
252	0x3bd911c6	0.006624433
253	0xbd882554	-0.06647745
254	0x3d2b4949	0.041817937
255	0x3d9c9ed3	0.07647481

name_lstm.bias_ih_l0 f4 [256]
0	0x3c9f5211	0.019448312
1	0x3dc2ac97	0.09505575
2	0x3e3e3a33	0.18576889
3	0x3e12752f	0.14302514
4	0xbc74505d	-0.014911738
5	0xbd87022a	-0.0659221
6	0x3decf35c	0.115698546
7	0xbd13ee41	-0.03611589
8	0xbc3d4c2f	-0.011553808
9	0x3e307afd	0.17234416
10	0x3e5269c7	0.20548163
11	0x3d9af688	0.07566553
12	0x3de18f19	0.11013622
13	0x3dd5f55c	0.10447189
14	0x3e3b26a7	0.18276463
15	0x3dbe27bd	0.09284923
16	0xbd291eaa	-0.04128901
17	0x3d81775a	0.06321593
18	0x3df32c00	0.11873627
19	0xbc8ff695	-0.017573634
20	0x3deb0b13	0.114767216
21	0x3e0bd142	0.13654044
22	0x3e27a6f9	0.16372289
23	0x3d83064e	0.06397687
24	0x3bbc628d	0.005749053
25	0x3bd55da0	0.006511405
26	0x3e5c9d2f	0.21544336
27	0x3d5b0279	0.053469155
28	0x3d61459d	0.05499803
29	0x3dd753eb	0.10514053
30	0x3d06e0a1	0.032929067
31	0x3e33ee0a	0.17571273
32	0x3e36218b	0.17786233
33	0x3dee0954	0.11622873
34	0x3d08c77f	0.03339338
35	0x3d95df32	0.07317962
36	0x3d849d40	0.064753056
37	0x3db9765b	0.09055778
38	0x3da9379e	0.08262561
39	0xbd0d703c	-0.034530863
40	0xbd08be13	-0.033384394
41	0xbd075dce	-0.033048443
42	0x3df4e5b2	0.119578734
43	0x3d83c5bd	0.064342
44	0x3e145d3e	0.14488694
45	0x3db6d7cc	0.08927879
46	0xbd57cd75	-0.052686173
47	0x3e0d9896	0.13827738
48	0x3e5e6ff1	0.2172239
49	0x3dcadeb7	0.09905761
50	0x3df1563a	0.117840245
51	0x3d32e4db	0.043675285
52	0xbcf2f4c3	-0.029657727
53	0x3aaa3fa2	0.0012988935
54	0x3db7119e	0.08938907
55	0x3c1ed04e	0.009693218
56	0x3d0f07eb	0.03491966
57	0xbd8d095c	-0.06886551
58	0x3e1d1ddf	0.15343426
59	0x3ddde6e6	0.10835056
60	0x3e0f2579	0.13979138
61	0x3d2654aa	0.040608086
62	0x3e0108c6	0.12601003
63	0x3e00532f	0.12531732
64	0x3dad0efb	0.08450123
65	0x3d40b6eb	0.047049444
66	0xbc160172	-0.009155618
67	0x3d97192d	0.07377849
68	0x3e008739	0.12551583
69	0x3e111c26	0.14170894
70	0x3d6924c6	0.056919836
71	0x3e116f66	0.14202651
72	0x3ca164dc	0.019701414
73	0x3d5aa5a1	0.053380612
74	0x3e115cb4	0.1419552
75	0x3e0136a7	0.12618504
76	0x3d35939a	0.044330217
77	0x3c72c586	0.014817601
78	0x3dc4e0e9	0.09613211
79	0xbd9d588d	-0.07682905
80	0x3e099bcc	0.13438338
81	0x3d2767b3	0.04087038
82	0xbcdce340	-0.02696383
83	0x3d14d87d	0.03633927
84	0x3da1210c	0.07867631
85	0x3d2a73e1	0.041614417
86	0x3d5cf8f6	0.053948365
87	0x3deb6dd1	0.11495555
88	0xbda43db5	-0.08019582
89	0x3d419450	0.047260582
90	0x3e3d9c18	0.18516576
91	0x3dfb2d7b	0.12264534
92	0x3dd0f6a8	0.10203296
93	0x3e26288d	0.16226406
94	0x3e32f2cd	0.17475434
95	0x3ce08a3f	0.02740967
96	0x3dc52145	0.09625486
97	0xbbbf3152	-0.005834737
98	0x3d8a11e0	0.06741691
99	0xbc055e3d	-0.008140144
100	0xbcb61ed2	-0.022231493
101	0x3d0ba009	0.03408817
102	0xbcd36f7d	-0.025809998
103	0x3e3314db	0.17488424
104	0x3da5d6bb	0.08097597
105	0x3ded07fd	0.11573789
106	0x3e18d4e6	0.14924964
107	0x3e07a877	0.13247858
108	0x3d76c8d1	0.060250107
109	0x3d834605	0.064098395
110	0x3d772f9e	0.060348146
111	0x3e141c0b	0.14463823
112	0xbd82c40d	-0.0638505
113	0xbd5c424e	-0.05377417
114	0x3dd4dd3e	0.10393761
115	0x3be4263a	0.006962565
116	0x3da400ca	0.08007963
117	0x3de999de	0.11406301
118	0x3c50dc52	0.012747841
119	0x3e14e750	0.14541364
120	0x3db029fd	0.08601759
121	0x3ce481a1	0.027893843
122	0x3d15f158	0.036607116
123	0x3d74c744	0.059760347
124	0x3d828df4	0.06374732
125	0x3e30aef1	0.17254235
126	0xbda708d6	-0.08155982
127	0xbd44e03a	-0.0480654
128	0xbd500943	-0.050790083
129	0x3d3d9657	0.046285953
130	0x3cb4124e	0.021981385
131	0x3da36347	0.0797792
132	0xbd7a7791	-0.061149184
133	0xbbf6036d	-0.0075077326
134	0xbd10d086	-0.035355113
135	0xbd17c3cf	-0.037051972
136	0xbd59bad5	-0.053156693
137	0x3cb80fb2	0.022468422
138	0xbdd69ead	-0.10479484
139	0xbd8dc8af	-0.06923043
140	0x3d2f018c	0.042726085
141	0xbde0c2b5	-0.109746374
142	0xbdbc2307	-0.091863684
143	0x3da6a5de	0.081371054
144	0xbd7ed408	-0.062213928
145	0x3dc0e00e	0.09417735
146	0xbb21f950	-0.0024715252
147	0x3d8c4330	0.068487525
148	0x3c7b6a67	0.0153451925
149	0xbd71c20a	-0.05902294
150	0x3d87d5c1	0.06632567
151	0xbd500eab	-0.05079524
152	0x3dd48883	0.103776
153	0x3dcaf570	0.09910095
154	0x3bb6952a	0.005571981
155	0x3dcb6baf	0.099326484
156	0xbdb150f6	-0.0865802
157	0x3e004b2b	0.12528674
158	0x3dcd48b6	0.10023634
159	0xbdab7da6	-0.08373575
160	0xbdb7f508	-0.08982283
161	0x3c6259fa	0.013815397
162	0xbd93e4ac	-0.0722135
163	0xbd5904a3	-0.052982938
164	0xbd9fb2f0	-0.077978015
165	0x3d86061f	0.06544136
166	0x3ac7b9eb	0.0015237903
167	0x3dcb9966	0.09941368
168	0x3da5988f	0.08085739
169	0xbdd4fa27	-0.10399275
170	0x3ce7383c	0.028225057
171	0xbddfda07	-0.10930257
172	0x3de1008d	0.10986433
173	0xbd28fa8b	-0.04125456
174	0x3b3a9326	0.0028469055
175	0xbd1068f6	-0.03525635
176	0xbdc0f93e	-0.09422539
177	0x3ce8a6d9	0.028399872
178	0x3d26049b	0.040531736
179	0x3d8f6661	0.07001949
180	0x3de85fc5	0.113463916
181	0xbcebc545	-0.028780589
182	0xbd776d82	-0.06040717
183	0x3d784c13	0.060619425
184	0xbd8c1d7b	-0.068415605
185	0x3cf944aa	0.03042825
186	0xbda06d38	-0.07833332
187	0xbda81bf3	-0.08208456
188	0x3dbc1eec	0.091855854
189	0x3cbb555e	0.022867855
190	0x3da1fe2c	0.079098076
191	0x3d1e56ce	0.038657002
192	0x3c3270e1	0.01089117
193	0x3dcc355a	0.099711135
194	0x3e19be91	0.15014102
195	0x3e048122	0.12939885
196	0xbd6b5d7b	-0.057462197
197	0x3d9b4bd6	0.07582824
198	0x3d7679ba	0.06017468
199	0xbce1c470	-0.027559489
200	0x3e003068	0.12518466
201	0x3db91d90	0.09038842
202	0x3e0b53a1	0.1360612
203	0x3e54dd66	0.20787582
204	0xbd1a8ce2	-0.037732013
205	0xbd2b6534	-0.04184456
206	0xbb970841	-0.0046091382
207	0x3e581452	0.21101502
208	0x3d4a01dc	0.04931818
209	0x3db0b343	0.086279415
210	0x3e321ad1	0.17393042
211	0x3e8c88ba	0.27448064
212	0xbced870a	-0.028995056
213	0xbcb9a188	-0.022660032
214	0x3e131659	0.14363994
215	0x3e0c8215	0.13721497
216	0xbd3e8719	-0.046515558
217	0x3e1c7137	0.15277563
218	0x3e6627e8	0.2247616
219	0x3dd5deff	0.10442924
220	0xbd3762fe	-0.04477214
221	0x3e0f3db2	0.13988379
222	0x3cccc0c3	0.02499426
223	0x3e23f67e	0.16011998
224	0x3e3696ed	0.17831011
225	0x3da15db1	0.07879198
226	0x3e360d99	0.17778625
227	0x3e211256	0.15729651
228	0x3dfa1689	0.122113295
229	0x3d974972	0.073870555
230	0x3cea8747	0.028628958
231	0x3dfd946b	0.12381824
232	0x3bb2d64a	0.005457674
233	0x3d2e4288	0.042543918
234	0x3e6225fc	0.22084802
235	0xbd80bbeb	-0.062858425
236	0xbca5e643	-0.020251399
237	0xbae16327	-0.0017195687
238	0xbd53f586	-0.05174782
239	0xbc93f2fe	-0.018060204
240	0x3d5b14e1	0.05348671
241	0x3dd01404	0.10160068
242	0x3dc36b26	0.09541921
243	0xbbf68f1c	-0.007524384
244	0x3d3b5b83	0.04574157
245	0x3d3c6549	0.04599503
246	0x3e00975d	0.1255774
247	0x3cbcf372	0.023065303
248	0x3dc0025b	0.09375449
249	0x3d43251a	0.047642805
250	0x3d8c2111	0.068422444
251	0x3cb919d7	0.02259533
252	0x3d63a106	0.055573486
253	0x3de1407f	0.1099863
254	0x3e5f0f74	0.21783239
255	0x3dbed7c5	0.093184985

name_lstm.bias_hh_l0 f4 [256]
0	0x3d57deb5	0.052702624
1	0xbd87a517	-0.06623285
2	0x3c664a5f	0.014055817
3	0x3d8ec6f1	0.06971539
4	0xbdd1abe1	-0.102378614
5	0xbcbe7e7f	-0.023253677
6	0x3c4404bf	0.011964022
7	0x3e335957	0.17514549
8	0xbc195edd	-0.009360996
9	0x3da6b36f	0.08139693
10	0x3e96cf53	0.2945505
11	0x3e3467a1	0.17617656
12	0x3e28ee83	0.16497235
13	0x3e46988a	0.19394127
14	0x3cc4ce98	0.024024293
15	0x3c44cb73	0.012011397
16	0x3c3fba2f	0.0117021045
17	0xbcabdd93	-0.020979678
18	0x3cb229b2	0.021748397
19	0x3e295334	0.16535646
20	0x3d4b2f9f	0.049605962
21	0x3c2f104b	0.010685037
22	0x3e53254b	0.20619695
23	0x3de09aa1	0.10966993
24	0xbd5769ca	-0.052591123
25	0x3e233699	0.15938796
26	0x3e1442f4	0.14478666
27	0xbd172bb2	-0.036906905
28	0x3dbc8b3b	0.092062436
29	0x3e55c4fe	0.20875928
30	0x3d9e4b71	0.07729233
31	0x3e0bf33c	0.13667005
32	0x3e3aa7e5	0.18228109
33	0xbd63aa46	-0.055582307
34	0x3d39812d	0.045289207
35	0x3dd2d6ab	0.10294851
36	0x3dfaa50c	0.122385114
37	0x3cb02523	0.021502083
38	0x3db38b76	0.087668344
39	0xbcd22466	-0.025652122
40	0xbd4d75c8	-0.050161153
41	0x3dcab9df	0.09898733
42	0x3e5c33ee	0.21504185
43	0x3dcf447a	0.10120483
44	0x3bfb69e5	0.0076725357
45	0x3ddc183a	0.10746808
46	0x3d108f2b	0.035292786
47	0xbc7cee4a	-0.015437672
48	0x3d1d3daa	0.038388886
49	0xbcee7a5e	-0.029111084
50	0x3d5c66f7	0.053809132
51	0x3e1828bf	0.14859293
52	0x3d8cd808	0.06877142
53	0xbcccc607	-0.02499677
54	0x3ca46108	0.0200658
55	0x3c1ab9d7	0.009443722
56	0x3d19b9d8	0.03753075
57	0xbd5e607e	-0.05429124
58	0x3ddc26da	0.10749598
59	0x3e49e2ad	0.19715376
60	0x3d599226	0.053117894
61	0x3e05cff3	0.13067608
62	0xbcd6556e	-0.026163783
63	0x3de7f24e	0.11325513
64	0x3d48e248	0.049043924
65	0x3d9aaf93	0.075530194
66	0x3be944b5	0.007118786
67	0x3daa7d9c	0.08324739
68	0x3d35baeb	0.044367712
69	0x3d633b5f	0.055476543
70	0x3c98ccea	0.018652398
71	0x3e00b610	0.12569451
72	0x3dd1332d	0.10214839
73	0xbd8a4e3b	-0.067532025
74	0x3e27134d	0.16315956
75	0x3da02537	0.07819598
76	0x3c797c9c	0.015227463
77	0x3d5c70d2	0.05381853
78	0x3d883ce0	0.06652236
79	0x3e1b21dc	0.15149635
80	0xbdb78bda	-0.089622214
81	0x3cd881a2	0.026429001
82	0x3da4111a	0.08011074
83	0x3e336f60	0.17522955
84	0x3c89b67d	0.01681065
85	0x3a59c257	0.0008306852
86	0x3d9b5370	0.07584274
87	0x3d38b8c6	0.04509809
88	0xbd560144	-0.0522473
89	0xbd93d958	-0.072191894
90	0x3de9c61f	0.11414742
91	0xbb4c79c8	-0.0031200517
92	0x3dce18b2	0.10063304
93	0x3ca921c0	0.020645976
94	0x3e148fdd	0.14508004
95	0xbd3817db	-0.044944625
96	0x3dca5f97	0.098815136
97	0x3e367279	0.17817105
98	0x3dd5efd2	0.10446133
99	0x3d5131f8	0.051073045
100	0x3c802339	0.015641795
101	0x3e1117c6	0.14169225
102	0x3e3c22b2	0.1837261
103	0x3dea1813	0.11430373
104	0x3e144856	0.14480719
105	0x3d647253	0.05577309
106	0xbd30a3af	-0.04312485
107	0x3e21b68d	0.15792294
108	0x3de0db34	0.1097931
109	0xbce49906	-0.027904999
110	0x3b10b69a	0.0022081495
111	0x3bb2a2b3	0.005451524
112	0xbd4e41de	-0.050355785
113	0x3e1db482	0.1540089
114	0x3e0ca2cc	0.13733977
115	0xbc3f8d01	-0.011691333
116	0xbdaaecdf	-0.08345961
117	0x3d450644	0.04810168
118	0x3df426df	0.119214766
119	0x3dcabdf1	0.0989951
120	0x3e420cff	0.1895027
121	0xbc96c4ff	-0.018404482
122	0x3d339c7b	0.043850403
123	0xbd56b99e	-0.052423112
124	0xbd894aec	-0.06703743
125	0x3d286c9b	0.0411192
126	0xbdb141bc	-0.08655116
127	0x3d1ee04d	0.03878813
128	0xbd9ce40f	-0.07660686
129	0xbdad8079	-0.0847177
130	0xbdf3356c	-0.11875424
131	0x3dde14d1	0.10843814
132	0x3d395ede	0.045256488
133	0xbd22e10d	-0.039765406
134	0xbcf8dc15	-0.03037838
135	0xbd16aa64	-0.03678359
136	0x3d8c3dbd	0.06847713
137	0x3c32e526	0.010918891
138	0xbb629151	-0.0034571479
139	0xbddc963c	-0.107708424
140	0x3da29667	0.07938843
141	0xbdb9d179	-0.09073157
142	0x3cafd4c7	0.021463765
143	0xbddf4e46	-0.10903601
144	0xbe0155f8	-0.1263045
145	0xbdb35dee	-0.0875815
146	0x3d78be1d	0.06072818
147	0xbd23cfb4	-0.039993003
148	0x3c67d70c	0.014150392
149	0xbde6ca0d	-0.11269007
150	0x3da387a7	0.07984858
151	0x3d5221f3	0.051301908
152	0xbcf1fdea	-0.029540021
153	0x3db94b7c	0.090476006
154	0x3d5a00f2	0.053223558
155	0xbdbedb41	-0.09319163
156	0x3db5745c	0.088600844
157	0x3d00e8ac	0.031471893
158	0xbd55a43e	-0.052158587
159	0xbcae4b39	-0.021276103
160	0x3d82a822	0.06379725
161	0x3d815d38	0.06316608
162	0xbd8b696c	-0.06807217
163	0xbd942d1d	-0.07235167
164	0xbdd5a448	-0.10431725
165	0xbdbbc5fb	-0.09168621
166	0xbda482fa	-0.08032794
167	0xbc1a74ef	-0.009427293
168	0x3bf5dd6e	0.007503203
169	0x3df2c41d	0.11853812
170	0xbd4dd7f1	-0.050254766
171	0x3d13bae7	0.036066916
172	0x3dfc3bff	0.12316131
173	0xbde47144	-0.11154416
174	0xbd80d9cc	-0.062915415
175	0xbdf8d752	-0.12150444
176	0x3c834a27	0.01602657
177	0x3d8f6b62	0.070029035
178	0xbd07bb32	-0.033137508
179	0xbd45d7de	-0.04830157
180	0xbdf3161a	-0.1186945
181	0x3d98a7f6	0.07453911
182	0x3dab17e8	0.08354169
183	0x3cd7dc5e	0.026350196
184	0xbdec55ba	-0.115397885
185	0x3daad448	0.08341271
186	0xbdb8ada4	-0.09017494
187	0x3cbf80f6	0.023376923
188	0xbd0c1e1b	-0.0342084
189	0x3d44b469	0.048023615
190	0xbdadfd42	-0.08495571
191	0x3c400833	0.011720705
192	0x3db22079	0.086976
193	0x3de75bb4	0.11296788
194	0x3dd11c93	0.10210528
195	0x3df1ca03	0.11806109
196	0x3deb251b	0.11481687
197	0xbd9836fa	-0.07432361
198	0x3e1f4b69	0.1555611
199	0x3e25989d	0.16171499
200	0x3d8656dd	0.065595366
201	0x3ddf1003	0.10891726
202	0x3e57c344	0.21070582
203	0x3e78b184	0.24286467
204	0x3ddbdbff	0.1073532
205	0xbc9d7be7	-0.01922412
206	0x3d9a1114	0.07522789
207	0x3d655b21	0.05599511
208	0xb7046dec	-7.893406e-06
209	0x3dce5d87	0.10076433
210	0x3d840e75	0.0644807
211	0x3dbd1fe7	0.092346005
212	0x3e0e0260	0.13868093
213	0x3e0980d5	0.13428052
214	0x3dfb5c8d	0.12273512
215	0x3dca8ea9	0.098904915
216	0xbdbdfa45	-0.09276251
217	0x3e034ec1	0.12823011
218	0x3d2d56bd	0.04231905
219	0x3d2a01c4	0.04150559
220	0x3d2a50cd	0.041580964
221	0xbd914024	-0.07092312
222	0x3ddf0020	0.10888696
223	0x3e0c6c38	0.13713157
224	0x3e328a60	0.17435598
225	0x3e0e5b2e	0.1390197
226	0x3dd9c8a4	0.10633972
227	0xbd131f20	-0.035918355
228	0x3d960e8d	0.07326994
229	0x3ddf2374	0.10895434
230	0x3d561858	0.05226931
231	0x3d820f23	0.06350543
232	0x3e494a4f	0.19657253
233	0x3e1edb93	0.15513448
234	0x3e66c3f9	0.22535695
235	0x3dd144dd	0.10218213
236	0xbc5a3dae	-0.01332037
237	0xbc5b8d93	-0.013400453
238	0x3d15ca1f	0.03656971
239	0x3def4933	0.116838835
240	0x3e546433	0.20741348
241	0x3e1bb08b	0.15204065
242	0x3c471c52	0.012152748
243	0x3e2058e6	0.15658912
244	0xbd53f181	-0.051743988
245	0xbca4cb24	-0.020116396
246	0x3da396ba	0.07987733
247	0x3dd5b7d5	0.10435454
248	0x3c2e0b55	0.010622819
249	0x3db4460f	0.08802425
250	0xbd3a8bdd	-0.04554354
251	0xbcbe996a	-0.023266513
252	0x3da9d8e5	0.082933225
253	0x3cb7828d	0.022401119
254	0x3d096ef4	0.03355308
255	0xbd43520a	-0.04768566

name_lstm.weight_ih_l0_reverse f4 [256, 128]
0	0xbb54a6bc	-0.0032448014
1	0x3d3bf250	0.045885384
2	0xbbefe432	-0.007320904
3	0xbd070ec1	-0.032973055
4	0x3e55b624	0.20870262
5	0x3e285f7a	0.16442671
6	0x3e1920ef	0.1495397
7	0xbd5e7425	-0.054309983
8	0xbe13cdf9	-0.14434041
9	0xbd85741d	-0.065162875
10	0xbe2e6373	-0.17030124
11	0x3e83dcae	0.25754303
12	0x3d80cc11	0.062889226
13	0xb88f302c	-6.827744e-05
14	0x3e4a53f5	0.1975859
15	0x3df4406e	0.119263515
16	0xbe00664e	-0.12539026
17	0xbd3031b1	-0.04301614
18	0x3ce4b365	0.027917573
19	0x3d5456d8	0.051840633
20	0xbc5dee60	-0.013545603
21	0xbe2a69d1	-0.16641928
22	0xbdbcc0ec	-0.092164844
23	0x3e2dfbde	0.16990611
24	0x3d0e2dc4	0.034711614
25	0x3e3ce76f	0.1844766
26	0xbe1449fa	-0.14481345
27	0x3d1d6b23	0.03843225
28	0xbda3ef07	-0.08004575
29	0xbbe7ceea	-0.0070742266
30	0x3d6be169	0.057588015
31	0xbd029d35	-0.031888206
32	0x3d4d9efe	0.050200455
33	0x3d80f355	0.06296412
34	0xbda9f8e6	-0.08299427
35	0x3b0447e5	0.0020184454
36	0xbdd2a311	-0.10285009
37	0x3d8dd06e	0.069245204
38	0xbd8b8aec	-0.068136066
39	0xbcf46a62	-0.029835884
40	0xbdbc84d9	-0.09205026
41	0xbd4731e4	-0.048631564
42	0xbdb0282f	-0.086014144
43	0xbd50f14d	-0.051011372
44	0xbe5bb160	-0.21454382
45	0x3ded2960	0.11580157
46	0xbde652c1	-0.11246253
47	0xbd1ab6b0	-0.03777188
48	0xbd858e00	-0.06521225
49	0xbd30e5ea	-0.043188013
50	0x3ba2cd08	0.0049682893
51	0xbd33c6c1	-0.04389072
52	0x3def9dc9	0.11700017
53	0xbe22c5a1	-0.15895702
54	0xbd70ccab	-0.058788937
55	0x3d08cca0	0.03339827
56	0x3d2e4bfd	0.042552937
57	0x3daa3f4e	0.08312856
58	0x3d892011	0.06695569
59	0xbd1ccfa7	-0.03828397
60	0xbc951b75	-0.01820157
61	0x3dd291e9	0.102817364
62	0xbcd1036c	-0.025514327
63	0x3dc4c3ba	0.096076444
64	0x3dbe80ae	0.093018875
65	0xbd095c27	-0.03353515
66	0xbd271dfe	-0.040800087
67	0xbdaadf0d	-0.08343325
68	0x3c245321	0.010029585
69	0xbd6d71b8	-0.05796978
70	0x3e2fbd50	0.1716206
71	0xbd7fc0a3	-0.062439572
72	0x3d5c4fc7	0.05378702
73	0xbd4e7e70	-0.05041355
74	0x3e0a0b21	0.13480808
75	0x3c0a03d8	0.008423768
76	0xbd9f9e1c	-0.07793829
77	0x3d81220d	0.06305323
78	0x3bf236ee	0.007391802
79	0xbdbd1002	-0.09231569
80	0x3cf95ff4	0.030441262
81	0xbc8c29b0	-0.017109722
82	0x3e2525cf	0.16127704
83	0x3d098f56	0.03358396
84	0x3dd0aed8	0.10189599
85	0xbde7bc0f	-0.11315166
86	0x3d1654a7	0.036701825
87	0xbdd43e37	-0.10363429
88	0xbdd48711	-0.103773244
89	0xbe04c960	-0.12967443
90	0xbda695f7	-0.08134072
91	0xbba6dd1c	-0.0050922763
92	0xbc52522b	-0.012836973
93	0x3da8ea98	0.0824787
94	0xbe1acc77	-0.1511706
95	0x3d4074e9	0.046986494
96	0x3d2b93d2	0.04188902
97	0x3d9732b5	0.073827185
98	0x3c565d20	0.013083726
99	0x3d939e6b	0.0720795
100	0xbe674ba0	-0.22587442
101	0xbcccfbe2	-0.02502245
102	0xbd92fc0b	-0.0717698
103	0x3e203c93	0.15648107
104	0x3d18a67d	0.03726815
105	0x3ca93607	0.020655645
106	0x3c091ae1	0.008368225
107	0xbd32f632	-0.04369182
108	0x3db8e946	0.090288684
109	0xbdaf234a	-0.08551653
110	0xbc5680c8	-0.013092227
111	0x3dd4ed8b	0.1039687
112	0x3ddadb54	0.10686365
113	0x3d7fe099	0.062470052
114	0xbe6b52dd	-0.22980829
115	0xbd9a66f0	-0.07539165
116	0x3d4d8609	0.050176654
117	0xbcc0ef94	-0.02355174
118	0xbe157e6f	-0.14599012
119	0x3e1315c0	0.14363766
120	0x3c90225d	0.01759451
121	0xbd93e013	-0.07220473
122	0xbc827e60	-0.0159294
123	0xbdd1504e	-0.10220395
124	0x3b9b6d0b	0.0047432235
125	0x3e0d7a6f	0.13816236
126	0x3cd9a8b1	0.026569696
127	0x3dd92618	0.10602969
128	0x3df06bac	0.11739287
129	0x3daa4375	0.08313648
130	0x3dd63a11	0.10460294
131	0xbdf82900	-0.12117195
132	0xbc9f61cf	-0.019455818
133	0x3dabdccc	0.08391723
134	0xbd4b3a1e	-0.04961597
135	0x3d974225	0.07385663
136	0xbcd36921	-0.025806965
137	0xbd137cfc	-0.036007866
138	0xbcc77b1a	-0.024350692
139	0xbd7e7a1a	-0.062128164
140	0xbdea475c	-0.11439392
141	0x3d3001a6	0.042970322
142	0xbe26ff12	-0.16308239
143	0xbd165110	-0.0366984
144	0x3d1f8e37	0.038953986
145	0x3daca40c	0.08429727
146	0x3d0de95c	0.034646377
147	0x3dbb4b0e	0.09145175
148	0xbb9e2281	-0.0048258905
149	0xbbf07da2	-0.0073391953
150	0xbe04d237	-0.12970816
151	0xbd006d94	-0.0313545
152	0x3d001ed7	0.03127941
153	0x3b846476	0.004040296
154	0xbca72e7d	-0.02040791
155	0x3c2606ac	0.010133427
156	0xbd0d0923	-0.03443254
157	0x3d8af779	0.06785483
158	0xbd4028f0	-0.04691404
159	0xbd0c4fef	-0.034255918
160	0xbd061db1	-0.03274316
161	0x3b3a0d93	0.0028389439
162	0x3e76ebfc	0.24113458
163	0xbdb6b7db	-0.089217864
164	0x3c85f5ff	0.016352652
165	0x3e3a3e77	0.18187891
166	0x3e1b8d85	0.15190704
167	0xbe255baf	-0.16148256
168	0xbdc944c3	-0.098275684
169	0x3cbe7a9a	0.02325182
170	0x3cf9f3fa	0.030511845
171	0xbe0e67e4	-0.13906819
172	0xbca3298b	-0.01991727
173	0xbe19cc0c	-0.15019244
174	0x3d4a317d	0.049363602
175	0x3caa88de	0.020817216
176	0xbe4c70b8	-0.19964874
177	0x3e071ed1	0.1319535
178	0xbdfa776b	-0.122298084
179	0xbd827614	-0.06370178
180	0x3dfbb50e	0.12290393
181	0x3d1acf1f	0.037795182
182	0xbe2649c8	-0.16239083
183	0xbd8b321a	-0.067966655
184	0x3df7381f	0.12071251
185	0x3d42ca09	0.047555957
186	0x3d5d47ef	0.05402368
187	0xbc75575a	-0.0149744395
188	0x3cb7b2fb	0.022424212
189	0x3ad68f21	0.001636956
190	0x3dad4fe8	0.084625065
191	0xbb18e333	-0.002332878
192	0xbd7ba19b	-0.061433416
193	0xbc912cd8	-0.017721578
194	0xbdb23dae	-0.08703171
195	0xbd84733b	-0.06467291
196	0xbd6d12d5	-0.057879288
197	0xbd78cc25	-0.060741562
198	0x3cde6c03	0.027151113
199	0xbd8fb242	-0.07016422
200	0x3cef49e6	0.029210042
201	0x3db9dad1	0.09074939
202	0x3cb80f7f	0.022468327
203	0x3d72f76e	0.059318
204	0xbe3174ca	-0.17329708
205	0x3dc5ff5a	0.09667845
206	0x3d298e31	0.04139537
207	0x3c873af0	0.016507596
208	0x3e32835b	0.1743292
209	0xbd9c57dc	-0.07633945
210	0x3d9ed6c7	0.07755809
211	0xbe6591b5	-0.22418864
212	0x3e250ff1	0.16119362
213	0xbdfe2619	-0.1240961
214	0xbd6974ff	-0.05699634
215	0xbbd8e9bb	-0.0066196597
216	0xbd1bf7c5	-0.03807809
217	0x3d15ec07	0.036602046
218	0xbcdda6a2	-0.027056996
219	0xbdbdfe0e	-0.09276973
220	0x3dd4a5d1	0.103831895
221	0x3bf096bf	0.007342189
222	0xbcb8d940	-0.02256453
223	0x3d0602f6	0.032717668
224	0x3d20b085	0.039230842
225	0x3e1819a5	0.14853533
226	0xbe34516c	-0.17609185
227	0xbdf224ca	-0.11823423
228	0xbd1fc266	-0.039003752
229	0xbe729b5d	-0.23692079
230	0xbd736b68	-0.059428602
231	0x3d213dc5	0.03936555
232	0x3d348d6c	0.044080183
233	0xbe098686	-0.13430223
234	0xbccd206d	-0.025039876
235	0xbd25c387	-0.040469673
236	0x3e57e4d8	0.2108339
237	0x3e3e7575	0.18599494
238	0x3c76715c	0.015041675
239	0xbe46034c	-0.19337195
240	0x3d2ad824	0.041710034
241	0x3da4044d	0.08008633
242	0x3d696e02	0.056989677
243	0x3c2b9f39	0.010474973
244	0x3dd8842b	0.10572084
245	0xbe05de4a	-0.13073078
246	0x3b4baba3	0.0031077645
247	0xbddb7763	-0.107161306
248	0xbd9569d1	-0.072955735
249	0x3cbf536e	0.023355212
250	0xbdb8b503	-0.090189
251	0xbd7b3697	-0.061331358
252	0xbe4a1865	-0.19735868
253	0xbdcfdd1d	-0.10149596
254	0x3d969181	0.073519714
255	0xbe6db398	-0.23213041
